2024-12-09 15:45:47,070 - INFO - Unet(
  (encoder): Encoder(
    (conv1_1): Conv2d(3, 64, kernel_size=(3, 3), stride=(1, 1), padding=same)
    (conv1_2): Conv2d(64, 64, kernel_size=(3, 3), stride=(1, 1), padding=same)
    (maxpool1): MaxPool2d(kernel_size=2, stride=2, padding=0, dilation=1, ceil_mode=False)
    (dropout1): Dropout2d(p=0.5, inplace=False)
    (conv2_1): Conv2d(64, 128, kernel_size=(3, 3), stride=(1, 1), padding=same)
    (conv2_2): Conv2d(128, 128, kernel_size=(3, 3), stride=(1, 1), padding=same)
    (maxpool2): MaxPool2d(kernel_size=2, stride=2, padding=0, dilation=1, ceil_mode=False)
    (dropout2): Dropout2d(p=0.5, inplace=False)
    (conv3_1): Conv2d(128, 256, kernel_size=(3, 3), stride=(1, 1), padding=same)
    (conv3_2): Conv2d(256, 256, kernel_size=(3, 3), stride=(1, 1), padding=same)
    (maxpool3): MaxPool2d(kernel_size=2, stride=2, padding=0, dilation=1, ceil_mode=False)
    (dropout3): Dropout2d(p=0.5, inplace=False)
    (conv4_1): Conv2d(256, 512, kernel_size=(3, 3), stride=(1, 1), padding=same)
    (conv4_2): Conv2d(512, 512, kernel_size=(3, 3), stride=(1, 1), padding=same)
    (maxpool4): MaxPool2d(kernel_size=2, stride=2, padding=0, dilation=1, ceil_mode=False)
    (dropout4): Dropout2d(p=0.5, inplace=False)
    (conv5_1): Conv2d(512, 1024, kernel_size=(3, 3), stride=(1, 1), padding=same)
    (conv5_2): Conv2d(1024, 1024, kernel_size=(3, 3), stride=(1, 1), padding=same)
    (maxpool5): MaxPool2d(kernel_size=2, stride=2, padding=0, dilation=1, ceil_mode=False)
    (dropout5): Dropout2d(p=0.5, inplace=False)
    (reLU): ReLU()
  )
  (decoder): Decoder(
    (deconv1): ConvTranspose2d(1024, 512, kernel_size=(2, 2), stride=(2, 2))
    (conv1_1): Conv2d(1024, 512, kernel_size=(3, 3), stride=(1, 1), padding=same)
    (conv1_2): Conv2d(512, 512, kernel_size=(3, 3), stride=(1, 1), padding=same)
    (dropout6): Dropout2d(p=0.5, inplace=False)
    (deconv2): ConvTranspose2d(512, 256, kernel_size=(2, 2), stride=(2, 2))
    (conv2_1): Conv2d(512, 256, kernel_size=(3, 3), stride=(1, 1), padding=same)
    (conv2_2): Conv2d(256, 256, kernel_size=(3, 3), stride=(1, 1), padding=same)
    (dropout7): Dropout2d(p=0.5, inplace=False)
    (deconv3): ConvTranspose2d(256, 128, kernel_size=(2, 2), stride=(2, 2))
    (conv3_1): Conv2d(256, 128, kernel_size=(3, 3), stride=(1, 1), padding=same)
    (conv3_2): Conv2d(128, 128, kernel_size=(3, 3), stride=(1, 1), padding=same)
    (dropout8): Dropout2d(p=0.5, inplace=False)
    (deconv4): ConvTranspose2d(128, 64, kernel_size=(2, 2), stride=(2, 2))
    (conv4_1): Conv2d(128, 64, kernel_size=(3, 3), stride=(1, 1), padding=same)
    (conv4_2): Conv2d(64, 64, kernel_size=(3, 3), stride=(1, 1), padding=same)
    (dropout9): Dropout2d(p=0.5, inplace=False)
    (reLU): ReLU()
  )
  (head): Conv2d(64, 1, kernel_size=(1, 1), stride=(1, 1), padding=same)
)
2024-12-09 15:45:47,193 - INFO - Epoch 0/19
2024-12-09 15:45:47,193 - INFO - ----------
2024-12-09 15:47:29,544 - INFO - Unet(
  (encoder): Encoder(
    (conv1_1): Conv2d(3, 64, kernel_size=(3, 3), stride=(1, 1), padding=same)
    (conv1_2): Conv2d(64, 64, kernel_size=(3, 3), stride=(1, 1), padding=same)
    (maxpool1): MaxPool2d(kernel_size=2, stride=2, padding=0, dilation=1, ceil_mode=False)
    (dropout1): Dropout2d(p=0.5, inplace=False)
    (conv2_1): Conv2d(64, 128, kernel_size=(3, 3), stride=(1, 1), padding=same)
    (conv2_2): Conv2d(128, 128, kernel_size=(3, 3), stride=(1, 1), padding=same)
    (maxpool2): MaxPool2d(kernel_size=2, stride=2, padding=0, dilation=1, ceil_mode=False)
    (dropout2): Dropout2d(p=0.5, inplace=False)
    (conv3_1): Conv2d(128, 256, kernel_size=(3, 3), stride=(1, 1), padding=same)
    (conv3_2): Conv2d(256, 256, kernel_size=(3, 3), stride=(1, 1), padding=same)
    (maxpool3): MaxPool2d(kernel_size=2, stride=2, padding=0, dilation=1, ceil_mode=False)
    (dropout3): Dropout2d(p=0.5, inplace=False)
    (conv4_1): Conv2d(256, 512, kernel_size=(3, 3), stride=(1, 1), padding=same)
    (conv4_2): Conv2d(512, 512, kernel_size=(3, 3), stride=(1, 1), padding=same)
    (maxpool4): MaxPool2d(kernel_size=2, stride=2, padding=0, dilation=1, ceil_mode=False)
    (dropout4): Dropout2d(p=0.5, inplace=False)
    (conv5_1): Conv2d(512, 1024, kernel_size=(3, 3), stride=(1, 1), padding=same)
    (conv5_2): Conv2d(1024, 1024, kernel_size=(3, 3), stride=(1, 1), padding=same)
    (maxpool5): MaxPool2d(kernel_size=2, stride=2, padding=0, dilation=1, ceil_mode=False)
    (dropout5): Dropout2d(p=0.5, inplace=False)
    (reLU): ReLU()
  )
  (decoder): Decoder(
    (deconv1): ConvTranspose2d(1024, 512, kernel_size=(2, 2), stride=(2, 2))
    (conv1_1): Conv2d(1024, 512, kernel_size=(3, 3), stride=(1, 1), padding=same)
    (conv1_2): Conv2d(512, 512, kernel_size=(3, 3), stride=(1, 1), padding=same)
    (dropout6): Dropout2d(p=0.5, inplace=False)
    (deconv2): ConvTranspose2d(512, 256, kernel_size=(2, 2), stride=(2, 2))
    (conv2_1): Conv2d(512, 256, kernel_size=(3, 3), stride=(1, 1), padding=same)
    (conv2_2): Conv2d(256, 256, kernel_size=(3, 3), stride=(1, 1), padding=same)
    (dropout7): Dropout2d(p=0.5, inplace=False)
    (deconv3): ConvTranspose2d(256, 128, kernel_size=(2, 2), stride=(2, 2))
    (conv3_1): Conv2d(256, 128, kernel_size=(3, 3), stride=(1, 1), padding=same)
    (conv3_2): Conv2d(128, 128, kernel_size=(3, 3), stride=(1, 1), padding=same)
    (dropout8): Dropout2d(p=0.5, inplace=False)
    (deconv4): ConvTranspose2d(128, 64, kernel_size=(2, 2), stride=(2, 2))
    (conv4_1): Conv2d(128, 64, kernel_size=(3, 3), stride=(1, 1), padding=same)
    (conv4_2): Conv2d(64, 64, kernel_size=(3, 3), stride=(1, 1), padding=same)
    (dropout9): Dropout2d(p=0.5, inplace=False)
    (reLU): ReLU()
  )
  (head): Conv2d(64, 1, kernel_size=(1, 1), stride=(1, 1), padding=same)
)
2024-12-09 15:47:29,659 - INFO - Epoch 0/19
2024-12-09 15:47:29,659 - INFO - ----------
2024-12-09 15:48:09,755 - INFO - Unet(
  (encoder): Encoder(
    (conv1_1): Conv2d(3, 64, kernel_size=(3, 3), stride=(1, 1), padding=same)
    (conv1_2): Conv2d(64, 64, kernel_size=(3, 3), stride=(1, 1), padding=same)
    (maxpool1): MaxPool2d(kernel_size=2, stride=2, padding=0, dilation=1, ceil_mode=False)
    (dropout1): Dropout2d(p=0.5, inplace=False)
    (conv2_1): Conv2d(64, 128, kernel_size=(3, 3), stride=(1, 1), padding=same)
    (conv2_2): Conv2d(128, 128, kernel_size=(3, 3), stride=(1, 1), padding=same)
    (maxpool2): MaxPool2d(kernel_size=2, stride=2, padding=0, dilation=1, ceil_mode=False)
    (dropout2): Dropout2d(p=0.5, inplace=False)
    (conv3_1): Conv2d(128, 256, kernel_size=(3, 3), stride=(1, 1), padding=same)
    (conv3_2): Conv2d(256, 256, kernel_size=(3, 3), stride=(1, 1), padding=same)
    (maxpool3): MaxPool2d(kernel_size=2, stride=2, padding=0, dilation=1, ceil_mode=False)
    (dropout3): Dropout2d(p=0.5, inplace=False)
    (conv4_1): Conv2d(256, 512, kernel_size=(3, 3), stride=(1, 1), padding=same)
    (conv4_2): Conv2d(512, 512, kernel_size=(3, 3), stride=(1, 1), padding=same)
    (maxpool4): MaxPool2d(kernel_size=2, stride=2, padding=0, dilation=1, ceil_mode=False)
    (dropout4): Dropout2d(p=0.5, inplace=False)
    (conv5_1): Conv2d(512, 1024, kernel_size=(3, 3), stride=(1, 1), padding=same)
    (conv5_2): Conv2d(1024, 1024, kernel_size=(3, 3), stride=(1, 1), padding=same)
    (maxpool5): MaxPool2d(kernel_size=2, stride=2, padding=0, dilation=1, ceil_mode=False)
    (dropout5): Dropout2d(p=0.5, inplace=False)
    (reLU): ReLU()
  )
  (decoder): Decoder(
    (deconv1): ConvTranspose2d(1024, 512, kernel_size=(2, 2), stride=(2, 2))
    (conv1_1): Conv2d(1024, 512, kernel_size=(3, 3), stride=(1, 1), padding=same)
    (conv1_2): Conv2d(512, 512, kernel_size=(3, 3), stride=(1, 1), padding=same)
    (dropout6): Dropout2d(p=0.5, inplace=False)
    (deconv2): ConvTranspose2d(512, 256, kernel_size=(2, 2), stride=(2, 2))
    (conv2_1): Conv2d(512, 256, kernel_size=(3, 3), stride=(1, 1), padding=same)
    (conv2_2): Conv2d(256, 256, kernel_size=(3, 3), stride=(1, 1), padding=same)
    (dropout7): Dropout2d(p=0.5, inplace=False)
    (deconv3): ConvTranspose2d(256, 128, kernel_size=(2, 2), stride=(2, 2))
    (conv3_1): Conv2d(256, 128, kernel_size=(3, 3), stride=(1, 1), padding=same)
    (conv3_2): Conv2d(128, 128, kernel_size=(3, 3), stride=(1, 1), padding=same)
    (dropout8): Dropout2d(p=0.5, inplace=False)
    (deconv4): ConvTranspose2d(128, 64, kernel_size=(2, 2), stride=(2, 2))
    (conv4_1): Conv2d(128, 64, kernel_size=(3, 3), stride=(1, 1), padding=same)
    (conv4_2): Conv2d(64, 64, kernel_size=(3, 3), stride=(1, 1), padding=same)
    (dropout9): Dropout2d(p=0.5, inplace=False)
    (reLU): ReLU()
  )
  (head): Conv2d(64, 1, kernel_size=(1, 1), stride=(1, 1), padding=same)
)
2024-12-09 15:48:09,876 - INFO - Epoch 0/19
2024-12-09 15:48:09,876 - INFO - ----------
2024-12-09 15:48:12,512 - INFO - Validation loss: 0.4673
2024-12-09 15:48:12,512 - INFO - Validation dice score: 6.7911
2024-12-09 15:48:33,234 - INFO - Unet(
  (encoder): Encoder(
    (conv1_1): Conv2d(3, 64, kernel_size=(3, 3), stride=(1, 1), padding=same)
    (conv1_2): Conv2d(64, 64, kernel_size=(3, 3), stride=(1, 1), padding=same)
    (maxpool1): MaxPool2d(kernel_size=2, stride=2, padding=0, dilation=1, ceil_mode=False)
    (dropout1): Dropout2d(p=0.5, inplace=False)
    (conv2_1): Conv2d(64, 128, kernel_size=(3, 3), stride=(1, 1), padding=same)
    (conv2_2): Conv2d(128, 128, kernel_size=(3, 3), stride=(1, 1), padding=same)
    (maxpool2): MaxPool2d(kernel_size=2, stride=2, padding=0, dilation=1, ceil_mode=False)
    (dropout2): Dropout2d(p=0.5, inplace=False)
    (conv3_1): Conv2d(128, 256, kernel_size=(3, 3), stride=(1, 1), padding=same)
    (conv3_2): Conv2d(256, 256, kernel_size=(3, 3), stride=(1, 1), padding=same)
    (maxpool3): MaxPool2d(kernel_size=2, stride=2, padding=0, dilation=1, ceil_mode=False)
    (dropout3): Dropout2d(p=0.5, inplace=False)
    (conv4_1): Conv2d(256, 512, kernel_size=(3, 3), stride=(1, 1), padding=same)
    (conv4_2): Conv2d(512, 512, kernel_size=(3, 3), stride=(1, 1), padding=same)
    (maxpool4): MaxPool2d(kernel_size=2, stride=2, padding=0, dilation=1, ceil_mode=False)
    (dropout4): Dropout2d(p=0.5, inplace=False)
    (conv5_1): Conv2d(512, 1024, kernel_size=(3, 3), stride=(1, 1), padding=same)
    (conv5_2): Conv2d(1024, 1024, kernel_size=(3, 3), stride=(1, 1), padding=same)
    (maxpool5): MaxPool2d(kernel_size=2, stride=2, padding=0, dilation=1, ceil_mode=False)
    (dropout5): Dropout2d(p=0.5, inplace=False)
    (reLU): ReLU()
  )
  (decoder): Decoder(
    (deconv1): ConvTranspose2d(1024, 512, kernel_size=(2, 2), stride=(2, 2))
    (conv1_1): Conv2d(1024, 512, kernel_size=(3, 3), stride=(1, 1), padding=same)
    (conv1_2): Conv2d(512, 512, kernel_size=(3, 3), stride=(1, 1), padding=same)
    (dropout6): Dropout2d(p=0.5, inplace=False)
    (deconv2): ConvTranspose2d(512, 256, kernel_size=(2, 2), stride=(2, 2))
    (conv2_1): Conv2d(512, 256, kernel_size=(3, 3), stride=(1, 1), padding=same)
    (conv2_2): Conv2d(256, 256, kernel_size=(3, 3), stride=(1, 1), padding=same)
    (dropout7): Dropout2d(p=0.5, inplace=False)
    (deconv3): ConvTranspose2d(256, 128, kernel_size=(2, 2), stride=(2, 2))
    (conv3_1): Conv2d(256, 128, kernel_size=(3, 3), stride=(1, 1), padding=same)
    (conv3_2): Conv2d(128, 128, kernel_size=(3, 3), stride=(1, 1), padding=same)
    (dropout8): Dropout2d(p=0.5, inplace=False)
    (deconv4): ConvTranspose2d(128, 64, kernel_size=(2, 2), stride=(2, 2))
    (conv4_1): Conv2d(128, 64, kernel_size=(3, 3), stride=(1, 1), padding=same)
    (conv4_2): Conv2d(64, 64, kernel_size=(3, 3), stride=(1, 1), padding=same)
    (dropout9): Dropout2d(p=0.5, inplace=False)
    (reLU): ReLU()
  )
  (head): Conv2d(64, 1, kernel_size=(1, 1), stride=(1, 1), padding=same)
)
2024-12-09 15:48:33,359 - INFO - Epoch 0/19
2024-12-09 15:48:33,359 - INFO - ----------
2024-12-09 15:48:35,987 - INFO - Validation loss: 0.5457
2024-12-09 15:48:35,987 - INFO - Validation dice score: 6.7905
2024-12-09 15:48:36,125 - INFO - Epoch 1/19
2024-12-09 15:48:36,125 - INFO - ----------
2024-12-09 15:48:38,537 - INFO - Validation loss: 0.4740
…
2024-12-09 15:49:26,341 - INFO - Validation loss: -162041389217795904.0000
2024-12-09 15:49:26,341 - INFO - Validation dice score: 6.7900
2024-12-09 15:49:26,731 - INFO - Epoch 19/19
2024-12-09 15:49:26,731 - INFO - ----------
2024-12-09 15:49:29,135 - INFO - Validation loss: -657727200583055232.0000
2024-12-09 15:49:29,135 - INFO - Validation dice score: 6.7899
2024-12-09 15:49:29,523 - INFO - Training complete in 0m 56s
2024-12-09 15:49:29,524 - INFO - Best validation loss: -657727200583055232.000000
2024-12-09 15:49:29,524 - INFO - Best validation score: 6.789947
2024-12-09 15:57:42,239 - INFO - Unet(
  (encoder): Encoder(
    (conv1_1): Conv2d(3, 64, kernel_size=(3, 3), stride=(1, 1), padding=same)
    (conv1_2): Conv2d(64, 64, kernel_size=(3, 3), stride=(1, 1), padding=same)
    (maxpool1): MaxPool2d(kernel_size=2, stride=2, padding=0, dilation=1, ceil_mode=False)
    (dropout1): Dropout2d(p=0.5, inplace=False)
    (conv2_1): Conv2d(64, 128, kernel_size=(3, 3), stride=(1, 1), padding=same)
    (conv2_2): Conv2d(128, 128, kernel_size=(3, 3), stride=(1, 1), padding=same)
    (maxpool2): MaxPool2d(kernel_size=2, stride=2, padding=0, dilation=1, ceil_mode=False)
    (dropout2): Dropout2d(p=0.5, inplace=False)
    (conv3_1): Conv2d(128, 256, kernel_size=(3, 3), stride=(1, 1), padding=same)
    (conv3_2): Conv2d(256, 256, kernel_size=(3, 3), stride=(1, 1), padding=same)
    (maxpool3): MaxPool2d(kernel_size=2, stride=2, padding=0, dilation=1, ceil_mode=False)
    (dropout3): Dropout2d(p=0.5, inplace=False)
    (conv4_1): Conv2d(256, 512, kernel_size=(3, 3), stride=(1, 1), padding=same)
    (conv4_2): Conv2d(512, 512, kernel_size=(3, 3), stride=(1, 1), padding=same)
    (maxpool4): MaxPool2d(kernel_size=2, stride=2, padding=0, dilation=1, ceil_mode=False)
    (dropout4): Dropout2d(p=0.5, inplace=False)
    (conv5_1): Conv2d(512, 1024, kernel_size=(3, 3), stride=(1, 1), padding=same)
    (conv5_2): Conv2d(1024, 1024, kernel_size=(3, 3), stride=(1, 1), padding=same)
    (maxpool5): MaxPool2d(kernel_size=2, stride=2, padding=0, dilation=1, ceil_mode=False)
    (dropout5): Dropout2d(p=0.5, inplace=False)
    (reLU): ReLU()
  )
  (decoder): Decoder(
    (deconv1): ConvTranspose2d(1024, 512, kernel_size=(2, 2), stride=(2, 2))
    (conv1_1): Conv2d(1024, 512, kernel_size=(3, 3), stride=(1, 1), padding=same)
    (conv1_2): Conv2d(512, 512, kernel_size=(3, 3), stride=(1, 1), padding=same)
    (dropout6): Dropout2d(p=0.5, inplace=False)
    (deconv2): ConvTranspose2d(512, 256, kernel_size=(2, 2), stride=(2, 2))
    (conv2_1): Conv2d(512, 256, kernel_size=(3, 3), stride=(1, 1), padding=same)
    (conv2_2): Conv2d(256, 256, kernel_size=(3, 3), stride=(1, 1), padding=same)
    (dropout7): Dropout2d(p=0.5, inplace=False)
    (deconv3): ConvTranspose2d(256, 128, kernel_size=(2, 2), stride=(2, 2))
    (conv3_1): Conv2d(256, 128, kernel_size=(3, 3), stride=(1, 1), padding=same)
    (conv3_2): Conv2d(128, 128, kernel_size=(3, 3), stride=(1, 1), padding=same)
    (dropout8): Dropout2d(p=0.5, inplace=False)
    (deconv4): ConvTranspose2d(128, 64, kernel_size=(2, 2), stride=(2, 2))
    (conv4_1): Conv2d(128, 64, kernel_size=(3, 3), stride=(1, 1), padding=same)
    (conv4_2): Conv2d(64, 64, kernel_size=(3, 3), stride=(1, 1), padding=same)
    (dropout9): Dropout2d(p=0.5, inplace=False)
    (reLU): ReLU()
  )
  (head): Conv2d(64, 1, kernel_size=(1, 1), stride=(1, 1), padding=same)
)
2024-12-09 15:57:42,366 - INFO - Epoch 0/19
2024-12-09 15:57:42,366 - INFO - ----------
2024-12-09 15:57:45,000 - INFO - Validation loss: 1.0907
2024-12-09 15:57:45,000 - INFO - Validation dice score: 2.4682
2024-12-09 15:57:45,454 - INFO - Epoch 1/19
2024-12-09 15:57:45,454 - INFO - ----------
2024-12-09 15:57:47,841 - INFO - Validation loss: 0.9766
…
2024-12-09 15:57:50,643 - INFO - Validation dice score: 2.5992
2024-12-09 15:57:51,059 - INFO - Epoch 3/19
2024-12-09 15:57:51,059 - INFO - ----------
2024-12-09 15:57:53,460 - INFO - Validation loss: -19.4618
2024-12-09 15:57:53,460 - INFO - Validation dice score: 4.0810
2024-12-09 15:57:53,869 - INFO - Epoch 4/19
2024-12-09 15:57:53,869 - INFO - ----------
2024-12-09 15:57:56,261 - INFO - Validation loss: -3620.5012
2024-12-09 15:57:56,261 - INFO - Validation dice score: 4.2632
2024-12-09 15:57:56,655 - INFO - Epoch 5/19
2024-12-09 15:57:56,655 - INFO - ----------
2024-12-09 16:00:35,569 - INFO - Unet(
  (encoder): Encoder(
    (conv1_1): Conv2d(3, 64, kernel_size=(3, 3), stride=(1, 1), padding=same)
    (conv1_2): Conv2d(64, 64, kernel_size=(3, 3), stride=(1, 1), padding=same)
    (maxpool1): MaxPool2d(kernel_size=2, stride=2, padding=0, dilation=1, ceil_mode=False)
    (dropout1): Dropout2d(p=0.5, inplace=False)
    (conv2_1): Conv2d(64, 128, kernel_size=(3, 3), stride=(1, 1), padding=same)
    (conv2_2): Conv2d(128, 128, kernel_size=(3, 3), stride=(1, 1), padding=same)
    (maxpool2): MaxPool2d(kernel_size=2, stride=2, padding=0, dilation=1, ceil_mode=False)
    (dropout2): Dropout2d(p=0.5, inplace=False)
    (conv3_1): Conv2d(128, 256, kernel_size=(3, 3), stride=(1, 1), padding=same)
    (conv3_2): Conv2d(256, 256, kernel_size=(3, 3), stride=(1, 1), padding=same)
    (maxpool3): MaxPool2d(kernel_size=2, stride=2, padding=0, dilation=1, ceil_mode=False)
    (dropout3): Dropout2d(p=0.5, inplace=False)
    (conv4_1): Conv2d(256, 512, kernel_size=(3, 3), stride=(1, 1), padding=same)
    (conv4_2): Conv2d(512, 512, kernel_size=(3, 3), stride=(1, 1), padding=same)
    (maxpool4): MaxPool2d(kernel_size=2, stride=2, padding=0, dilation=1, ceil_mode=False)
    (dropout4): Dropout2d(p=0.5, inplace=False)
    (conv5_1): Conv2d(512, 1024, kernel_size=(3, 3), stride=(1, 1), padding=same)
    (conv5_2): Conv2d(1024, 1024, kernel_size=(3, 3), stride=(1, 1), padding=same)
    (maxpool5): MaxPool2d(kernel_size=2, stride=2, padding=0, dilation=1, ceil_mode=False)
    (dropout5): Dropout2d(p=0.5, inplace=False)
    (reLU): ReLU()
  )
  (decoder): Decoder(
    (deconv1): ConvTranspose2d(1024, 512, kernel_size=(2, 2), stride=(2, 2))
    (conv1_1): Conv2d(1024, 512, kernel_size=(3, 3), stride=(1, 1), padding=same)
    (conv1_2): Conv2d(512, 512, kernel_size=(3, 3), stride=(1, 1), padding=same)
    (dropout6): Dropout2d(p=0.5, inplace=False)
    (deconv2): ConvTranspose2d(512, 256, kernel_size=(2, 2), stride=(2, 2))
    (conv2_1): Conv2d(512, 256, kernel_size=(3, 3), stride=(1, 1), padding=same)
    (conv2_2): Conv2d(256, 256, kernel_size=(3, 3), stride=(1, 1), padding=same)
    (dropout7): Dropout2d(p=0.5, inplace=False)
    (deconv3): ConvTranspose2d(256, 128, kernel_size=(2, 2), stride=(2, 2))
    (conv3_1): Conv2d(256, 128, kernel_size=(3, 3), stride=(1, 1), padding=same)
    (conv3_2): Conv2d(128, 128, kernel_size=(3, 3), stride=(1, 1), padding=same)
    (dropout8): Dropout2d(p=0.5, inplace=False)
    (deconv4): ConvTranspose2d(128, 64, kernel_size=(2, 2), stride=(2, 2))
    (conv4_1): Conv2d(128, 64, kernel_size=(3, 3), stride=(1, 1), padding=same)
    (conv4_2): Conv2d(64, 64, kernel_size=(3, 3), stride=(1, 1), padding=same)
    (dropout9): Dropout2d(p=0.5, inplace=False)
    (reLU): ReLU()
  )
  (head): Conv2d(64, 1, kernel_size=(1, 1), stride=(1, 1), padding=same)
)
2024-12-09 16:00:35,700 - INFO - Epoch 0/19
2024-12-09 16:00:35,701 - INFO - ----------
2024-12-09 16:00:38,298 - INFO - Validation loss: 1.0648
2024-12-09 16:00:38,298 - INFO - Validation dice score: 2.4225
2024-12-09 16:00:38,733 - INFO - Epoch 1/19
2024-12-09 16:00:38,733 - INFO - ----------
2024-12-09 16:00:57,324 - INFO - Unet(
  (encoder): Encoder(
    (conv1_1): Conv2d(3, 64, kernel_size=(3, 3), stride=(1, 1), padding=same)
    (conv1_2): Conv2d(64, 64, kernel_size=(3, 3), stride=(1, 1), padding=same)
    (maxpool1): MaxPool2d(kernel_size=2, stride=2, padding=0, dilation=1, ceil_mode=False)
    (dropout1): Dropout2d(p=0.5, inplace=False)
    (conv2_1): Conv2d(64, 128, kernel_size=(3, 3), stride=(1, 1), padding=same)
    (conv2_2): Conv2d(128, 128, kernel_size=(3, 3), stride=(1, 1), padding=same)
    (maxpool2): MaxPool2d(kernel_size=2, stride=2, padding=0, dilation=1, ceil_mode=False)
    (dropout2): Dropout2d(p=0.5, inplace=False)
    (conv3_1): Conv2d(128, 256, kernel_size=(3, 3), stride=(1, 1), padding=same)
    (conv3_2): Conv2d(256, 256, kernel_size=(3, 3), stride=(1, 1), padding=same)
    (maxpool3): MaxPool2d(kernel_size=2, stride=2, padding=0, dilation=1, ceil_mode=False)
    (dropout3): Dropout2d(p=0.5, inplace=False)
    (conv4_1): Conv2d(256, 512, kernel_size=(3, 3), stride=(1, 1), padding=same)
    (conv4_2): Conv2d(512, 512, kernel_size=(3, 3), stride=(1, 1), padding=same)
    (maxpool4): MaxPool2d(kernel_size=2, stride=2, padding=0, dilation=1, ceil_mode=False)
    (dropout4): Dropout2d(p=0.5, inplace=False)
    (conv5_1): Conv2d(512, 1024, kernel_size=(3, 3), stride=(1, 1), padding=same)
    (conv5_2): Conv2d(1024, 1024, kernel_size=(3, 3), stride=(1, 1), padding=same)
    (maxpool5): MaxPool2d(kernel_size=2, stride=2, padding=0, dilation=1, ceil_mode=False)
    (dropout5): Dropout2d(p=0.5, inplace=False)
    (reLU): ReLU()
  )
  (decoder): Decoder(
    (deconv1): ConvTranspose2d(1024, 512, kernel_size=(2, 2), stride=(2, 2))
    (conv1_1): Conv2d(1024, 512, kernel_size=(3, 3), stride=(1, 1), padding=same)
    (conv1_2): Conv2d(512, 512, kernel_size=(3, 3), stride=(1, 1), padding=same)
    (dropout6): Dropout2d(p=0.5, inplace=False)
    (deconv2): ConvTranspose2d(512, 256, kernel_size=(2, 2), stride=(2, 2))
    (conv2_1): Conv2d(512, 256, kernel_size=(3, 3), stride=(1, 1), padding=same)
    (conv2_2): Conv2d(256, 256, kernel_size=(3, 3), stride=(1, 1), padding=same)
    (dropout7): Dropout2d(p=0.5, inplace=False)
    (deconv3): ConvTranspose2d(256, 128, kernel_size=(2, 2), stride=(2, 2))
    (conv3_1): Conv2d(256, 128, kernel_size=(3, 3), stride=(1, 1), padding=same)
    (conv3_2): Conv2d(128, 128, kernel_size=(3, 3), stride=(1, 1), padding=same)
    (dropout8): Dropout2d(p=0.5, inplace=False)
    (deconv4): ConvTranspose2d(128, 64, kernel_size=(2, 2), stride=(2, 2))
    (conv4_1): Conv2d(128, 64, kernel_size=(3, 3), stride=(1, 1), padding=same)
    (conv4_2): Conv2d(64, 64, kernel_size=(3, 3), stride=(1, 1), padding=same)
    (dropout9): Dropout2d(p=0.5, inplace=False)
    (reLU): ReLU()
  )
  (head): Conv2d(64, 1, kernel_size=(1, 1), stride=(1, 1), padding=same)
)
2024-12-09 16:00:57,452 - INFO - Epoch 0/19
2024-12-09 16:00:57,452 - INFO - ----------
2024-12-09 16:01:00,050 - INFO - Validation loss: 1.4128
2024-12-09 16:01:00,050 - INFO - Validation dice score: 2.2901
2024-12-09 16:01:00,461 - INFO - Epoch 1/19
2024-12-09 16:01:00,461 - INFO - ----------
2024-12-09 16:01:02,846 - INFO - Validation loss: 1.2799
2024-12-09 16:01:02,846 - INFO - Validation dice score: 2.3375
2024-12-09 16:01:03,240 - INFO - Epoch 2/19
2024-12-09 16:01:03,240 - INFO - ----------
2024-12-09 16:01:33,524 - INFO - Unet(
  (encoder): Encoder(
    (conv1_1): Conv2d(3, 64, kernel_size=(3, 3), stride=(1, 1), padding=same)
    (conv1_2): Conv2d(64, 64, kernel_size=(3, 3), stride=(1, 1), padding=same)
    (maxpool1): MaxPool2d(kernel_size=2, stride=2, padding=0, dilation=1, ceil_mode=False)
    (dropout1): Dropout2d(p=0.5, inplace=False)
    (conv2_1): Conv2d(64, 128, kernel_size=(3, 3), stride=(1, 1), padding=same)
    (conv2_2): Conv2d(128, 128, kernel_size=(3, 3), stride=(1, 1), padding=same)
    (maxpool2): MaxPool2d(kernel_size=2, stride=2, padding=0, dilation=1, ceil_mode=False)
    (dropout2): Dropout2d(p=0.5, inplace=False)
    (conv3_1): Conv2d(128, 256, kernel_size=(3, 3), stride=(1, 1), padding=same)
    (conv3_2): Conv2d(256, 256, kernel_size=(3, 3), stride=(1, 1), padding=same)
    (maxpool3): MaxPool2d(kernel_size=2, stride=2, padding=0, dilation=1, ceil_mode=False)
    (dropout3): Dropout2d(p=0.5, inplace=False)
    (conv4_1): Conv2d(256, 512, kernel_size=(3, 3), stride=(1, 1), padding=same)
    (conv4_2): Conv2d(512, 512, kernel_size=(3, 3), stride=(1, 1), padding=same)
    (maxpool4): MaxPool2d(kernel_size=2, stride=2, padding=0, dilation=1, ceil_mode=False)
    (dropout4): Dropout2d(p=0.5, inplace=False)
    (conv5_1): Conv2d(512, 1024, kernel_size=(3, 3), stride=(1, 1), padding=same)
    (conv5_2): Conv2d(1024, 1024, kernel_size=(3, 3), stride=(1, 1), padding=same)
    (maxpool5): MaxPool2d(kernel_size=2, stride=2, padding=0, dilation=1, ceil_mode=False)
    (dropout5): Dropout2d(p=0.5, inplace=False)
    (reLU): ReLU()
  )
  (decoder): Decoder(
    (deconv1): ConvTranspose2d(1024, 512, kernel_size=(2, 2), stride=(2, 2))
    (conv1_1): Conv2d(1024, 512, kernel_size=(3, 3), stride=(1, 1), padding=same)
    (conv1_2): Conv2d(512, 512, kernel_size=(3, 3), stride=(1, 1), padding=same)
    (dropout6): Dropout2d(p=0.5, inplace=False)
    (deconv2): ConvTranspose2d(512, 256, kernel_size=(2, 2), stride=(2, 2))
    (conv2_1): Conv2d(512, 256, kernel_size=(3, 3), stride=(1, 1), padding=same)
    (conv2_2): Conv2d(256, 256, kernel_size=(3, 3), stride=(1, 1), padding=same)
    (dropout7): Dropout2d(p=0.5, inplace=False)
    (deconv3): ConvTranspose2d(256, 128, kernel_size=(2, 2), stride=(2, 2))
    (conv3_1): Conv2d(256, 128, kernel_size=(3, 3), stride=(1, 1), padding=same)
    (conv3_2): Conv2d(128, 128, kernel_size=(3, 3), stride=(1, 1), padding=same)
    (dropout8): Dropout2d(p=0.5, inplace=False)
    (deconv4): ConvTranspose2d(128, 64, kernel_size=(2, 2), stride=(2, 2))
    (conv4_1): Conv2d(128, 64, kernel_size=(3, 3), stride=(1, 1), padding=same)
    (conv4_2): Conv2d(64, 64, kernel_size=(3, 3), stride=(1, 1), padding=same)
    (dropout9): Dropout2d(p=0.5, inplace=False)
    (reLU): ReLU()
  )
  (head): Conv2d(64, 1, kernel_size=(1, 1), stride=(1, 1), padding=same)
)
2024-12-09 16:01:33,652 - INFO - Epoch 0/19
2024-12-09 16:01:33,652 - INFO - ----------
2024-12-09 16:01:36,268 - INFO - Validation loss: 0.8795
2024-12-09 16:01:36,268 - INFO - Validation dice score: 2.4969
2024-12-09 16:01:36,658 - INFO - Epoch 1/19
2024-12-09 16:01:36,658 - INFO - ----------
2024-12-09 16:01:39,030 - INFO - Validation loss: 0.5964
2024-12-09 16:01:39,030 - INFO - Validation dice score: 2.6081
2024-12-09 16:01:39,427 - INFO - Epoch 2/19
2024-12-09 16:01:39,428 - INFO - ----------
2024-12-09 16:01:41,814 - INFO - Validation loss: -1.7564
2024-12-09 16:01:41,814 - INFO - Validation dice score: 3.3775
2024-12-09 16:01:42,205 - INFO - Epoch 3/19
2024-12-09 16:01:42,205 - INFO - ----------
2024-12-09 16:01:44,584 - INFO - Validation loss: -504.6032
2024-12-09 16:01:44,585 - INFO - Validation dice score: 4.0183
2024-12-09 16:01:44,975 - INFO - Epoch 4/19
2024-12-09 16:01:44,975 - INFO - ----------
2024-12-09 16:01:59,195 - INFO - Unet(
  (encoder): Encoder(
    (conv1_1): Conv2d(3, 64, kernel_size=(3, 3), stride=(1, 1), padding=same)
    (conv1_2): Conv2d(64, 64, kernel_size=(3, 3), stride=(1, 1), padding=same)
    (maxpool1): MaxPool2d(kernel_size=2, stride=2, padding=0, dilation=1, ceil_mode=False)
    (dropout1): Dropout2d(p=0.5, inplace=False)
    (conv2_1): Conv2d(64, 128, kernel_size=(3, 3), stride=(1, 1), padding=same)
    (conv2_2): Conv2d(128, 128, kernel_size=(3, 3), stride=(1, 1), padding=same)
    (maxpool2): MaxPool2d(kernel_size=2, stride=2, padding=0, dilation=1, ceil_mode=False)
    (dropout2): Dropout2d(p=0.5, inplace=False)
    (conv3_1): Conv2d(128, 256, kernel_size=(3, 3), stride=(1, 1), padding=same)
    (conv3_2): Conv2d(256, 256, kernel_size=(3, 3), stride=(1, 1), padding=same)
    (maxpool3): MaxPool2d(kernel_size=2, stride=2, padding=0, dilation=1, ceil_mode=False)
    (dropout3): Dropout2d(p=0.5, inplace=False)
    (conv4_1): Conv2d(256, 512, kernel_size=(3, 3), stride=(1, 1), padding=same)
    (conv4_2): Conv2d(512, 512, kernel_size=(3, 3), stride=(1, 1), padding=same)
    (maxpool4): MaxPool2d(kernel_size=2, stride=2, padding=0, dilation=1, ceil_mode=False)
    (dropout4): Dropout2d(p=0.5, inplace=False)
    (conv5_1): Conv2d(512, 1024, kernel_size=(3, 3), stride=(1, 1), padding=same)
    (conv5_2): Conv2d(1024, 1024, kernel_size=(3, 3), stride=(1, 1), padding=same)
    (maxpool5): MaxPool2d(kernel_size=2, stride=2, padding=0, dilation=1, ceil_mode=False)
    (dropout5): Dropout2d(p=0.5, inplace=False)
    (reLU): ReLU()
  )
  (decoder): Decoder(
    (deconv1): ConvTranspose2d(1024, 512, kernel_size=(2, 2), stride=(2, 2))
    (conv1_1): Conv2d(1024, 512, kernel_size=(3, 3), stride=(1, 1), padding=same)
    (conv1_2): Conv2d(512, 512, kernel_size=(3, 3), stride=(1, 1), padding=same)
    (dropout6): Dropout2d(p=0.5, inplace=False)
    (deconv2): ConvTranspose2d(512, 256, kernel_size=(2, 2), stride=(2, 2))
    (conv2_1): Conv2d(512, 256, kernel_size=(3, 3), stride=(1, 1), padding=same)
    (conv2_2): Conv2d(256, 256, kernel_size=(3, 3), stride=(1, 1), padding=same)
    (dropout7): Dropout2d(p=0.5, inplace=False)
    (deconv3): ConvTranspose2d(256, 128, kernel_size=(2, 2), stride=(2, 2))
    (conv3_1): Conv2d(256, 128, kernel_size=(3, 3), stride=(1, 1), padding=same)
    (conv3_2): Conv2d(128, 128, kernel_size=(3, 3), stride=(1, 1), padding=same)
    (dropout8): Dropout2d(p=0.5, inplace=False)
    (deconv4): ConvTranspose2d(128, 64, kernel_size=(2, 2), stride=(2, 2))
    (conv4_1): Conv2d(128, 64, kernel_size=(3, 3), stride=(1, 1), padding=same)
    (conv4_2): Conv2d(64, 64, kernel_size=(3, 3), stride=(1, 1), padding=same)
    (dropout9): Dropout2d(p=0.5, inplace=False)
    (reLU): ReLU()
  )
  (head): Conv2d(64, 1, kernel_size=(1, 1), stride=(1, 1), padding=same)
)
2024-12-09 16:01:59,325 - INFO - Epoch 0/19
2024-12-09 16:01:59,325 - INFO - ----------
2024-12-09 16:02:01,949 - INFO - Validation loss: 1.4756
2024-12-09 16:02:01,949 - INFO - Validation dice score: 2.2872
2024-12-09 16:02:02,415 - INFO - Epoch 1/19
2024-12-09 16:02:02,416 - INFO - ----------
2024-12-09 16:02:44,876 - INFO - Unet(
  (encoder): Encoder(
    (conv1_1): Conv2d(3, 64, kernel_size=(3, 3), stride=(1, 1), padding=same)
    (conv1_2): Conv2d(64, 64, kernel_size=(3, 3), stride=(1, 1), padding=same)
    (maxpool1): MaxPool2d(kernel_size=2, stride=2, padding=0, dilation=1, ceil_mode=False)
    (dropout1): Dropout2d(p=0.5, inplace=False)
    (conv2_1): Conv2d(64, 128, kernel_size=(3, 3), stride=(1, 1), padding=same)
    (conv2_2): Conv2d(128, 128, kernel_size=(3, 3), stride=(1, 1), padding=same)
    (maxpool2): MaxPool2d(kernel_size=2, stride=2, padding=0, dilation=1, ceil_mode=False)
    (dropout2): Dropout2d(p=0.5, inplace=False)
    (conv3_1): Conv2d(128, 256, kernel_size=(3, 3), stride=(1, 1), padding=same)
    (conv3_2): Conv2d(256, 256, kernel_size=(3, 3), stride=(1, 1), padding=same)
    (maxpool3): MaxPool2d(kernel_size=2, stride=2, padding=0, dilation=1, ceil_mode=False)
    (dropout3): Dropout2d(p=0.5, inplace=False)
    (conv4_1): Conv2d(256, 512, kernel_size=(3, 3), stride=(1, 1), padding=same)
    (conv4_2): Conv2d(512, 512, kernel_size=(3, 3), stride=(1, 1), padding=same)
    (maxpool4): MaxPool2d(kernel_size=2, stride=2, padding=0, dilation=1, ceil_mode=False)
    (dropout4): Dropout2d(p=0.5, inplace=False)
    (conv5_1): Conv2d(512, 1024, kernel_size=(3, 3), stride=(1, 1), padding=same)
    (conv5_2): Conv2d(1024, 1024, kernel_size=(3, 3), stride=(1, 1), padding=same)
    (maxpool5): MaxPool2d(kernel_size=2, stride=2, padding=0, dilation=1, ceil_mode=False)
    (dropout5): Dropout2d(p=0.5, inplace=False)
    (reLU): ReLU()
  )
  (decoder): Decoder(
    (deconv1): ConvTranspose2d(1024, 512, kernel_size=(2, 2), stride=(2, 2))
    (conv1_1): Conv2d(1024, 512, kernel_size=(3, 3), stride=(1, 1), padding=same)
    (conv1_2): Conv2d(512, 512, kernel_size=(3, 3), stride=(1, 1), padding=same)
    (dropout6): Dropout2d(p=0.5, inplace=False)
    (deconv2): ConvTranspose2d(512, 256, kernel_size=(2, 2), stride=(2, 2))
    (conv2_1): Conv2d(512, 256, kernel_size=(3, 3), stride=(1, 1), padding=same)
    (conv2_2): Conv2d(256, 256, kernel_size=(3, 3), stride=(1, 1), padding=same)
    (dropout7): Dropout2d(p=0.5, inplace=False)
    (deconv3): ConvTranspose2d(256, 128, kernel_size=(2, 2), stride=(2, 2))
    (conv3_1): Conv2d(256, 128, kernel_size=(3, 3), stride=(1, 1), padding=same)
    (conv3_2): Conv2d(128, 128, kernel_size=(3, 3), stride=(1, 1), padding=same)
    (dropout8): Dropout2d(p=0.5, inplace=False)
    (deconv4): ConvTranspose2d(128, 64, kernel_size=(2, 2), stride=(2, 2))
    (conv4_1): Conv2d(128, 64, kernel_size=(3, 3), stride=(1, 1), padding=same)
    (conv4_2): Conv2d(64, 64, kernel_size=(3, 3), stride=(1, 1), padding=same)
    (dropout9): Dropout2d(p=0.5, inplace=False)
    (reLU): ReLU()
  )
  (head): Conv2d(64, 1, kernel_size=(1, 1), stride=(1, 1), padding=same)
)
2024-12-09 16:02:44,997 - INFO - Epoch 0/19
2024-12-09 16:02:44,997 - INFO - ----------
2024-12-09 16:02:47,620 - INFO - Validation loss: 1.6518
2024-12-09 16:02:47,620 - INFO - Validation dice score: 0.1371
2024-12-09 16:02:48,025 - INFO - Epoch 1/19
2024-12-09 16:02:48,025 - INFO - ----------
2024-12-09 16:02:50,416 - INFO - Validation loss: 1.6118
…
